assets/model.tflite (tflite, 2344 bytes, 6 tensors)

sequential/dense/BiasAdd/ReadVariableOp/resource f4 [10]
000000 dc 2f 13 3e ba e5 71 bd 4c 93 87 bd 00 00 00 00
       0.14373726 -0.059056975 -0.066198915 0.0
000010 7d cd 99 bd 4c ac cb 3d 00 00 00 00 00 00 00 00
       -0.07509897 0.099449724 0.0 0.0
000020 af 96 eb 3a 10 c9 96 3c
       0.0017973984 0.018406421

sequential/dense_1/BiasAdd/ReadVariableOp/resource f4 [10]
000000 6e e3 07 bd 00 00 00 00 4d 19 9d 3c 41 01 b1 b9
       -0.03317588 0.0 0.019177103 -0.00033761005
000010 00 00 00 00 60 9d d4 bb ed 29 28 3e 83 89 e7 3c
       0.0 -0.006488487 0.16422243 0.028263813
000020 00 00 00 00 b4 cf 1c 3c
       0.0 0.009571005

sequential/dense_2/BiasAdd/ReadVariableOp/resource f4 [3]
000000 ac 18 e4 bc 5a 50 f8 3d 31 4a bf bd
       -0.027843796 0.12124701 -0.09340323

sequential/dense/MatMul f4 [10, 4]
000000 44 23 09 3f 4c 6a 08 3f 29 cc 1a bf 56 d3 0b bf
       0.53569436 0.53287196 -0.60467774 -0.5461935
000010 f0 4f 5f 3c 56 78 86 be 56 b9 0b 3f f2 82 88 3e
       0.013629898 -0.26263684 0.54579675 0.26662403
000020 59 55 ac be 3a 03 da 3d a8 1b 4b 3f ed 3c 43 3f
       -0.33658865 0.10645147 0.79339075 0.7626484
000030 5c 4a 12 be 06 65 f0 be 10 90 f4 3d 32 7a 9c be
       -0.14286178 -0.46952075 0.1194154 -0.30561978
000040 55 05 1b 3e 7c 3f 25 bf 8d cd 39 3f 73 ab 83 3e
       0.15138753 -0.64549994 0.7257927 0.25716743
000050 b4 b0 50 3f f5 0e a2 3e 9b 37 9b 3e 58 80 b3 be
       0.8151963 0.31652036 0.3031586 -0.35058856
000060 26 c9 4b be f0 b2 0a bd d0 96 50 3d ab 1a 18 bf
       -0.19900951 -0.033862054 0.050925076 -0.5941569
000070 80 1b 77 bd 69 ae 87 be 2c 15 1a be 10 73 46 3d
       -0.06032896 -0.26500252 -0.15047139 0.048449576
000080 5b 36 e8 bd 4e 34 c4 3e a6 51 ed be 9a 78 ee be
       -0.113384925 0.38321155 -0.46351355 -0.46576387
000090 56 46 57 3e 94 45 b5 3d 44 e7 71 3e 84 41 10 3f
       0.21022925 0.088511616 0.23623377 0.5634997

sequential/dense_1/MatMul f4 [10, 10]
000000 ae a2 28 bf bc 76 25 3f 5e b6 25 3f 7c 90 a7 3e
       -0.6587323 0.646343 0.64731395 0.3272742
000010 5f d7 24 3e 39 0a 9e 3e 32 73 cb be f8 21 9a 3e
       0.16097783 0.30867174 -0.39736325 0.3010404
000020 41 9b 24 3e 8e a8 d7 3e 70 c8 16 3e 70 c1 e8 bd
       0.1607485 0.42120785 0.14724898 -0.1136502
000030 f4 a5 9e 3e 26 48 da be 98 64 60 be c6 e2 9b be
       0.30985987 -0.4263317 -0.21913373 -0.30446452
000040 20 d2 22 bd 88 49 7c 3e 20 ad 85 be 39 34 04 bf
       -0.039751172 0.24637425 -0.26108646 -0.51642185
000050 38 d6 ff 3c 9c ab ec 3e 6d 18 ef 3e 3c 7e 57 3e
       0.031230077 0.46224678 0.46698323 0.21044248
000060 c9 96 c4 bd e3 0f d2 3e e1 48 fa be 0e 01 d7 be
       -0.095990725 0.41027746 -0.48883727 -0.41992992
000070 9b f3 d8 be 55 32 02 3e 68 b3 f1 3d 70 e5 83 3c
       -0.42373356 0.12714513 0.11801797 0.016100615
000080 83 1a de be 24 2b f2 3e cb 09 a9 3e 62 89 83 be
       -0.43379602 0.4729854 0.33015284 -0.25690752
000090 05 3d bf be c8 3e 31 3e 0a d9 e2 be 6f 3e 32 3d
       -0.37351242 0.17309105 -0.44306213 0.043516573
0000a0 78 3d cd be 75 36 87 be 88 ff 61 bd 2c 92 ce 3e
       -0.4008596 -0.26408735 -0.055175334 0.40345895
0000b0 a8 0f a4 be 18 89 bd bd 56 aa df 3e cd 3f 96 be
       -0.32043195 -0.09254664 0.43684644 -0.2934555
0000c0 7a 98 a5 3e 54 63 6c 3e 41 a6 59 be 2a c5 bf be
       0.32342893 0.23084766 -0.21254827 -0.37455112
0000d0 f8 92 b1 be e2 d4 a3 be 6f d6 93 3e 49 9a ac be
       -0.3468244 -0.31998354 0.28874537 -0.3371146
0000e0 9c 72 78 be 18 08 ac 3e a0 a6 4a bd 7d b1 fa 3e
       -0.2426247 0.33599925 -0.049475312 0.48963538
0000f0 3d 99 61 3f d0 ea e1 be cd 4b 5a bf 31 0f 81 be
       0.8812445 -0.4412446 -0.8527191 -0.25206903
000100 c6 bb 1e bf bb 67 3a 3f 19 d2 f6 be 8a 91 95 be
       -0.6200527 0.7281453 -0.48207167 -0.292126
000110 3c ae 5c 3e 04 ed 71 3e 21 52 79 bd fd cb 06 bf
       0.2155084 0.2362557 -0.06086934 -0.5265501
000120 fc 30 5c bd ac 0d 9c 3e 0a d7 b2 be 86 53 00 3f
       -0.053757653 0.3047918 -0.34929687 0.50127447
000130 a3 61 90 be 6c 38 f1 3e 8e 72 69 be a6 e0 d0 be
       -0.2819949 0.4711336 -0.22797605 -0.40796393
000140 60 13 49 3d 78 ed e8 3e 78 af da 3d fa 74 c3 3e
       0.049090743 0.45493674 0.10677999 0.38175184
000150 b4 7d c9 be 48 ff 05 be 28 be 30 3e 40 bb 4d 3d
       -0.39353716 -0.13085663 0.17260039 0.050227404
000160 dc 41 24 be de 8a c1 be c7 cd 7d bd ff e7 2d bd
       -0.16040748 -0.3780126 -0.061963823 -0.042457577
000170 b2 a8 c3 be ce 8f 0f be a4 f2 5e bd 37 fa 52 3e
       -0.38214642 -0.14019701 -0.05443062 0.20603262
000180 14 ad 45 3e b8 f5 cc be 67 14 ef 3d b9 e9 a0 bd
       0.19304305 -0.4003122 0.11673813 -0.07857079

sequential/dense_2/MatMul f4 [3, 10]
000000 94 c8 2f bf 6b 29 a5 be 18 6e 99 bd 65 0e 7c be
       -0.6866543 -0.32258162 -0.07491702 -0.24614866
000010 2c a7 da be fb 0e c2 3d 9d 54 75 3f 04 2e b0 3e
       -0.42705667 0.094755135 0.95832235 0.34410107
000020 c0 41 55 3e f5 d5 df bd aa 79 0a 3e 70 85 a4 3e
       0.20825863 -0.10929481 0.13522974 0.32133055
000030 e4 2a 9c 3e ec 16 2a 3f 28 b2 cf 3e 24 c8 80 3d
       0.30501473 0.66441226 0.4056561 0.06288174
000040 08 c6 9c 3e ba 4e e4 3c fa dc e9 be 5b 9a f2 be
       0.30619836 0.027869571 -0.45676404 -0.4738339
000050 12 a2 50 3f 72 42 7a be e5 e2 95 3d d6 61 cb be
       0.814973 -0.2443941 0.07318667 -0.3972308
000060 78 bf 3a 3e 9b ff 2b bf 7f d1 a5 bf e3 9d 06 be
       0.18237102 -0.671869 -1.2954558 -0.13146167
000070 80 76 3a 3d b3 91 3c bd
       0.045523167 -0.046037387
